backend/models/gnn-model.pt (torch, 251237 bytes, 12 tensors)

weight f4 [102, 50]
00000000: b64f cfbc 4daf 07be 7f32 e2bb 0ee5 f33c
00000010: e384 e1bd c5d9 cabd 521d 08be 2657 d7bd
00000020: ffd4 f73c 6719 56bd d7aa 0b3e 50aa 5e3d
00000030: 28f7 45bd c4a5 4dbe aab3 2cbd 01aa 8cbd
00000040: 1880 b83d 5529 1abe f1f1 8c3c c725 2abe
00000050: b5b8 8ebd 16e1 02bd 7fa3 803d d770 2f3d
00000060: 6f9c 0bbe f7dc 4abe b2b7 463d 21c6 483d
00000070: c98e 6b3d cc00 963d 0a22 4dbe a18e 3c3d
00000080: acf3 49bc 9d18 e9bd 0dba 13be 0e7e 803d
00000090: 42a5 9dbc 5a53 9bbd a119 0cbe a565 4abd
000000a0: abcb 2e3d d5d5 4ebe 0cce 2dbe 66ae 8a3d
000000b0: d3f2 e8bd 7c5a 1bbe 6596 763d 571b 37be
000000c0: eaa6 8bbd 7000 383d c77e 5dbb ca91 103e
000000d0: 98de d23c a969 243e f631 8bbd c73f 4d3d
000000e0: 93b4 1dbc b45c c83c ef46 0e3e 2717 963c
000000f0: bb3e 893e 129c a3bc 1d28 463e e709 d63d
00000100: a218 ec3d 3762 083e 7228 e8bc 67ca f83d
00000110: 9eb3 203e ccd7 1bbd f2ba 3d3d 370e 083d
00000120: 481f 423e 6707 a73b 8ddf 86bd 0846 cc3d
00000130: e2f3 cf3d 5889 473d bcfc 18bd 0022 bebd
00000140: df29 65bd 5c01 813d 6c00 113e 34e7 4e3c
00000150: 5738 4b3e 31f9 7fbd e2e1 cb3d 1829 a33d
00000160: eac7 adbd 1756 1f3e f1dc 1a3e 417a 403d
00000170: 70b1 a93b 0753 3c3e 338d 76bd c0ae 6ebd
00000180: 52be 413e a4d4 933b eb1d ea3c c287 2b3d
00000190: fa10 023e a36c c73d 6de8 633e 458a 4c3e
000001a0: add0 673e f30d 813e 705b 813c 5077 963d
000001b0: 0ab2 d13d bb83 3b3e 717d 273e c2b3 7d3d
000001c0: 894f 963c f3cd 643d 35c7 2bbc 9497 d2ba
000001d0: 7096 803d 251e 733c 9629 2e3e 601e 603e
000001e0: 04a5 463d bd96 483e 9ef8 7b3d aacf 303c
000001f0: 80f3 223e 3b0c ef3c e060 a33d 3c61 013e
00000200: 30c5 a0bc c22b 5c3e 69ad 093e a6f0 8a3d
00000210: 6035 733e 62b2 983b ad5d a13d cd29 c73d
00000220: 8629 6bbc ad74 d83d b0d3 b53d 72b6 9f3d
00000230: d7c3 953d 3f34 4d3e 0361 6b3e 7c09 fb3c
00000240: 6951 df3d 1b20 cf3d 892f e03d 5ce9 323e
00000250: 283d 0fbd bda1 cc3d 051f 8bbd aab7 10be
00000260: 8ec7 893d f7bb 45be a964 43bd 0be2 473d
00000270: 9ba5 9fbb 9976 a8bd 81d1 973d eb78 0bbe
00000280: 14f5 383d fc9b 2ebe 04cf a4bd 48d0 3ebd
00000290: 8645 8bbd cd3e 74bd 54e4 0abe 980c b9bc
000002a0: 4242 7fbd bf68 993d f93e cfbd 050e 56bd
000002b0: b373 afbd f386 eabc 5586 ecbd b093 8f3d
000002c0: f2d8 3ebe 93a6 adbc 16ee 71bd 244f 40be
000002d0: 6fdf 4fbe f9ec 92bb 8dd5 d6bd f679 75bd
000002e0: 1b8a 82bd 80a5 a2bd c9d4 3ebd 1ae4 04be
000002f0: 438c 13be d5f0 b6bd 1ac9 eebd eaaa 19be
00000300: d872 08be 1a9e 933d e455 203d 272e d73c
00000310: 7e3b 83bd e729 23be b66d 86bd 1885 103d
00000320: 6764 8f3d cd95 e1bd af7e 67bd 83a5 a9bc
00000330: e191 24be bd25 65bd e928 0e3c ed9c d5bd
00000340: c4a6 e2bd 8f4a d73b 8c60 ba3c cf8c ffbc
00000350: 5c2b 9f3d 0c21 36be 5aed 3fbe e187 f4bd
00000360: dffc 08bd f3de 17be e460 bd3d e9d3 3ebe
00000370: 4f68 1cbe 2ec8 a13d 1d9d 4a3d d564 b73b
00000380: aa0d 3cbe 9a61 debd 94c7 b7bc 5d76 153d
00000390: 57bb 2ebe 19ce 963d d79c c1bc 50d4 cdbd
000003a0: fb78 533d ab52 043d 9a77 ba3d 0f88 79bd
000003b0: 27e8 903d b42d 06be c1c6 3dbe 6c8d a7bc
000003c0: 3518 07bd c688 e33b 4bd9 c0bd 301a 953c
000003d0: 202e e73c b483 9dbc 16c3 1ebe f65b 0e3d
000003e0: 5f0f bfbd cf1d 63bd bdef 8f3e d9ad 163e
000003f0: e77f 443d b1af 1a3e e92f 9c3e 7525 243e
-0.025306564 -0.13250466 -0.0069029923 0.029772308 -0.11011674 -0.099048175 -0.13292435 -0.10514669
0.030252932 -0.05227032 0.13639389 0.05436164 -0.04833141 -0.20082766 -0.04216353 -0.06868363
0.09008807 -0.1505483 0.01720521 -0.16615973 -0.06968824 -0.03195294 0.062811844 0.04283222
-0.13633893 -0.19810854 0.04851503 0.049017075 0.057509217 0.07324371 -0.20032516 0.04603446
-0.012326162 -0.11381648 -0.14426441 0.06274043 -0.01924384 -0.075842574 -0.13681652 -0.049413342
0.0426747 -0.20198758 -0.16973132 0.06771545 -0.1137444 -0.15171236 0.06020202 -0.17881523
-0.06818946 0.044922292 -0.003379749 0.14118114 0.025740907 0.16055931 -0.06796639 0.05010965
-0.009625572 0.024458267 0.13894247 0.018321587 0.26805672 -0.019971881 0.1935124 0.104511075
0.11528136 0.13318716 -0.028339598 0.1214798 0.15693519 -0.038047597 0.046320863 0.03321668
0.18957245 0.005097318 -0.06585608 0.09974295 0.10153939 0.048714966 -0.0373504 -0.09283829
-0.055948135 0.062990874 0.14160317 0.012628365 0.1984571 -0.062493507 0.09955193 0.079668224
-0.08485396 0.15560184 0.15123345 0.04699159 0.005178623 0.18391047 -0.06019325 -0.058272123
0.18920258 0.0045114327 0.02857872 0.041877516 0.12701789 0.09737518 0.22256632 0.1997462
0.22638197 0.25205955 0.015790671 0.07346976 0.102390364 0.1831197 0.16356446 0.06193901
0.018348472 0.05586047 -0.010484506 -0.0016066902 0.06278694 0.01483873 0.17008051 0.21886587
0.048497215 0.19588752 0.061516397 0.0107916985 0.159132 0.029180637 0.07977462 0.12634748
-0.019625276 0.21501067 0.13445057 0.06784181 0.2375083 0.0046599368 0.07879195 0.0972477
-0.014353162 0.10569129 0.08878267 0.077984706 0.07312744 0.20039462 0.22986226 0.030644171
0.109042 0.101135455 0.109465666 0.17471832 -0.034970433 0.09991787 -0.06793026 -0.14132562
0.06727515 -0.19309984 -0.04770342 0.048799556 -0.0048720366 -0.08225746 0.074130066 -0.13620345
0.0451556 -0.17051691 -0.080472976 -0.04658535 -0.0680037 -0.059630204 -0.13563663 -0.022589013
-0.062319048 0.07490682 -0.10119433 -0.052259464 -0.0856699 -0.028628802 -0.11549059 0.07010591
-0.18637446 -0.021197593 -0.059064947 -0.1878019 -0.20300077 -0.0044838157 -0.1048995 -0.059930764
-0.06373998 -0.07941723 -0.046589646 -0.12977639 -0.14408974 -0.08932654 -0.11659451 -0.15006605
-0.1332506 0.0720789 0.03914441 0.026267124 -0.064078316 -0.15933953 -0.065638945 0.035283178
0.07001572 -0.110149 -0.0565173 -0.020708805 -0.16071273 -0.055944193 0.008676746 -0.10430322
-0.11066964 0.0065701674 0.022751115 -0.031195072 0.07771942 -0.17786044 -0.18742886 -0.11939979
-0.03344428 -0.14831142 0.09246996 -0.18635525 -0.15274166 0.07899509 0.04946624 0.005596737
-0.18364587 -0.1085846 -0.022434033 0.036489833 -0.17063652 0.07363529 -0.023634357 -0.10050261
0.051629048 0.0323054 0.091048434 -0.06092077 0.070755295 -0.13103372 -0.1853285 -0.020453177
-0.03298207 0.006943795 -0.09416445 0.018200964 0.028220236 -0.01922784 -0.15504107 0.03475567
-0.09329104 -0.05544835 0.28112593 0.14714755 0.04797354 0.15106083 0.30505303 0.16029914

bias f4 [102]
00000000: 0312 33bd edc3 703e 1e89 223e 8881 44be
00000010: d65f 1cbe d61a 773e cff4 9db9 e548 63be
00000020: 356c 01be c67a 0c3e e5c6 c93c 1649 533d
00000030: 108f 413c 8aaa f4bd 7560 bf3d 1e0a 45bd
00000040: 7282 8a3d 34aa febd 1f3e 5a3e 4698 2a3e
00000050: e0e8 67bc 1459 863d c885 1abe ac14 0cbd
00000060: 5a64 90bc 8d8d a43b 97f2 59bc ab21 5a3d
00000070: a00b 3abe 022c 23bc 75b8 253e 948a b8bd
00000080: 714d 68bc 3d68 15bd 0695 d1bd b16d b5bd
00000090: 9eb0 05bf 6422 2e3e 9af3 543d 5bd3 b2bc
000000a0: bc67 3dbe 6840 32bd 9e87 5b3d 747f 49be
000000b0: e296 6c3c d285 6dbc af0f bb3d 2d1d 29bd
000000c0: e877 30be d1f0 17be 1128 4bbe 1860 edbd
000000d0: 9eec 2e3e 74ed cdbe 6c9c 7c3d ec0a b53d
000000e0: bed1 a6be bd55 fbbd 9f73 1dbd 4960 52ba
000000f0: a10e 613d 91e6 ac3c 5f4a 88bd d33f ebbd
00000100: 96c3 d1be d3c5 7bbd 08a2 13bd fff3 9ebc
00000110: 98a9 9cbb afb6 343e 26cc 05be f9d0 97bb
00000120: 9ff9 323d c297 963e 7955 66be eab4 5dbe
00000130: 01c8 803e 1275 033d 85bd fe3c 07ed 6cbd
00000140: 5d1a 4b3d 772e 08be 3a26 973d f615 f9bc
00000150: 2639 12bd b038 41be 804c a43a b48c 88bd
00000160: 41c8 b1bd 28d8 eebd 8089 323e c88c 983d
00000170: 4a3e bdbc c9dd ce3d 8a3a 8bbd 5070 713d
00000180: 8ea4 2bbd bd09 443d 8fda c23c aab3 18be
00000190: fdab f1bd 2875 b3bd
-0.04371835 0.2351224 0.15872619 -0.19190037 -0.15270934 0.24131331 -0.0003012777 -0.22195776
-0.12638934 0.1371871 0.024630973 0.051583372 0.011813894 -0.1194659 0.093445696 -0.04810535
0.06763162 -0.124348074 0.2131276 0.1665965 -0.014154643 0.06559959 -0.15090096 -0.0341994
-0.017625976 0.005021757 -0.013302467 0.053254765 -0.18168497 -0.009959223 0.16183646 -0.09010807
-0.01417862 -0.036476362 -0.10233502 -0.088588126 -0.5222262 0.17005306 0.05199013 -0.021829298
-0.18496603 -0.043518454 0.05359613 -0.19677526 0.01444027 -0.014497237 0.09133851 -0.04128759
-0.1723324 -0.14837958 -0.19839503 -0.11590594 0.1708245 -0.40220225 0.061672613 0.08839974
-0.32581896 -0.12272213 -0.038440343 -0.0008025212 0.05494559 0.021106036 -0.0665481 -0.11486783
-0.40969533 -0.061467957 -0.036043197 -0.019403456 -0.0047809593 0.17647813 -0.13066158 -0.004633066
0.04369509 0.29412657 -0.22493543 -0.21651044 0.2515259 0.03209407 0.03109623 -0.057843234
0.04958569 -0.13298975 0.07380338 -0.03040598 -0.035699032 -0.18869281 0.0012535006 -0.06667462
-0.086807735 -0.11662322 0.17435265 0.07448727 -0.02310099 0.10100896 -0.06798275 0.058945
-0.04190498 0.04786085 0.023785857 -0.14912286 -0.11800382 -0.0876258

weight f4 [102, 36]
00000000: f81d 12bd 9f8f 193e d7de 80bd 9bfb 1a3e
00000010: fa2d 7f3d 372e 8dbc 1c3e 613d 8948 e6be
00000020: 9f9b a63f a77e c93e e3b8 f83d 3f58 05bf
00000030: 22d0 1a3f 999f 0ebf e35c 0fbe df2b 823e
00000040: d365 b4bf 04df 303e 7dcd ca3e 8323 853d
00000050: c870 383e b673 dc3d 2cb9 263e 0ace 5f3e
00000060: 6802 bb3e b926 ae3e adf0 a93e 21ef c93e
00000070: 5922 b0bf bc7b eb3e b779 c63d 5aac 0e3f
00000080: a93b a6bf 412d bebf db35 babf ac90 09c0
00000090: 1c64 15bd edd9 213d dbcb c33d 35e5 3bbf
000000a0: 823f fabd b279 c2bd d41c 00bf 7d97 c73d
000000b0: 13ab 4fbf 61f6 ad3e 71d8 9abe 7153 1fbc
000000c0: 2d88 b1be a61a d9be d674 1e3e 55c8 7b3f
000000d0: 4917 173e 6e5c 713f d1e3 3a3f 4750 963e
000000e0: d4a0 a73e 3559 183f 8b9b 1f3f 7b53 40bf
000000f0: 65dd 193f fd30 113f b20b e83e 0716 453f
00000100: 38d0 c0be a478 7d3e 1007 f83e 947e e13e
00000110: f01b ef3f c8c9 1fbf 9999 d2be 63fd b3bf
00000120: 6743 38be 5742 d3bf b60f 703f 7e80 4abe
00000130: 713e a13f c62f 2a3d b7a3 933f a48b a4be
00000140: 9296 30bd 553d 96be 0959 03bf 9842 723e
00000150: d84c b5bd a856 923d d816 a9be 8406 6bbe
00000160: b344 70bd 2051 203e 2645 68be fb4a acbe
00000170: ce33 d1bd 6621 41be 82b9 75be 1594 f83e
00000180: 30bd 8fbe d0aa f8bd 8207 38be 96dc 29bf
00000190: 1f9d 97be 5261 453f a82f 593e 6ea9 05bf
000001a0: ef7b 353f 8d4e 21bf 8d41 1cbf 5429 23c0
000001b0: f426 623c 87bc c5bd cf2b d5bd 6b98 22bd
000001c0: b526 74bd 64ea b03b 7bab 9bbd c7e8 b3bd
000001d0: 57d8 7a3e 1e5d 6dbe 8d40 83bd ee76 c8bd
000001e0: a62d 86bd 7705 dabd 5068 0cbe 799f 29be
000001f0: f41a 8e3d cce2 18be b064 97be ec19 c9bd
00000200: 4a02 a53d 1a32 6abc e1e2 5c3d 1449 58be
00000210: 8059 2dbe 5f9f 83be 4810 b2bc 8d01 32bd
00000220: 0f53 c73c 7bc1 513e 4168 b33a 6c34 bdbd
00000230: 9f52 663e f430 8d3d 98a7 b23d 2930 7bbd
00000240: 8143 44bb 46b8 0fbe 7351 033e c245 ee39
00000250: 4891 40be bb0d 68bc b8b9 103e d0ac c4bd
00000260: 7331 96be f1f8 4b3c 9f8d 11bd be33 37be
00000270: 450b 17bd 2483 c2be 29f5 793d 143e 993e
00000280: f70e 353e 79a0 f2bd b6ee 763e 4cb6 b73d
00000290: 850c 203e d12c 743e 4e11 f2bd 8302 f03a
000002a0: ff85 863e d6f0 d4bd 368c ac3d e7b2 de3c
000002b0: 9eb5 74be ac45 b3be 8859 52bd 9ebc dd3b
000002c0: 3693 52be 00c6 83be c610 4ebe 41fc b1be
000002d0: 04ce 64bf c9f6 ffbe 5ab3 a9bf a129 853f
000002e0: 7c65 a5bf 0870 e3be 5477 3bbe c6b8 f1bd
000002f0: a84b b23d d45d 7d3d 18f8 81ba 88e4 2abe
00000300: c907 0ebd b464 3dbe 185a 803d bdf7 29bd
00000310: 4761 653d 4acd 2bba 9093 5cbe 1423 b53d
00000320: f8cf 993d 96c8 d8bd a423 513e b94a 0c3d
00000330: da62 fabc 8879 0ebe e4d2 8d3c cef2 843d
00000340: 69ff 78bd fa64 33be 5646 51be 467c f23e
00000350: 7d7b a53d 8896 26be b73e f63b 0cbe 8b3f
00000360: 0832 3bbc 7e7d 1abf 8c3e cb3d 9a73 293e
00000370: f2a0 63be 5a08 eb3c 0feb 333f 8796 36bf
00000380: 04a3 1ebd ee9a 123f c249 1f3f 4a2e 17c0
00000390: 8918 1a3e 77c1 3bc0 8ce3 2f3e 4b7a 0240
000003a0: 6931 a7be a92c 5dbe df7e a53e 13d8 933e
000003b0: e73b 833f 450d ad3e 0f6e a13e a372 24bf
000003c0: e2b7 6a3f dfe2 7f3e b115 a63e 9784 8c3e
000003d0: f031 1a3e fdd9 e1be e97d 6ebe 5bf2 dcbf
000003e0: 787a b43d a964 1bbf 19ad 19bf 3693 08c0
000003f0: 06a0 01bc 2a15 55be dea7 223d 3440 f93d
-0.03567311 0.14996193 -0.06292503 0.15135042 0.062299706 -0.017233951 0.054990873 -0.44977215
1.3016242 0.3935444 0.12144639 -0.5208778 0.60473835 -0.55712277 -0.14000277 0.25424096
-1.4093574 0.17272574 0.396099 0.06500914 0.18011773 0.107642576 0.16281575 0.21855941
0.36525273 0.34013918 0.33191434 0.39440253 -1.3760482 0.4599284 0.09691184 0.5573174
-1.2986957 -1.485756 -1.4547685 -2.149455 -0.036472425 0.03951447 0.09560367 -0.7339662
-0.122191444 -0.09495868 -0.5004399 0.09745691 -0.81120414 0.33977035 -0.30243257 -0.009724484
-0.34674206 -0.42403144 0.15474257 0.9835256 0.14754976 0.9428166 0.7300387 0.29358122
0.3273989 0.5951112 0.62346715 -0.7512738 0.60103446 0.56715375 0.45321423 0.76986736
-0.37658858 0.24753052 0.48442888 0.44041884 1.8680401 -0.6241727 -0.4113281 -1.4061702
-0.17994462 -1.650462 0.93773973 -0.19775578 1.2597181 0.041549467 1.1534337 -0.32137787
-0.043112345 -0.29343668 -0.5130773 0.23658216 -0.088525474 0.071454346 -0.3302524 -0.22951704
-0.058659267 0.15655947 -0.22682628 -0.33650956 -0.10214959 -0.18860397 -0.23996547 0.48550478
-0.28074026 -0.12141955 -0.17971614 -0.6635221 -0.2961206 0.77101624 0.21209586 -0.52211654
0.7089223 -0.63010484 -0.6103752 -2.5493975 0.013803232 -0.09655099 -0.104087465 -0.03969614
-0.059607226 0.0053990353 -0.07601067 -0.08784633 0.2449659 -0.23180053 -0.064087965 -0.09788309
-0.065516755 -0.106455736 -0.13711667 -0.1656474 0.06938735 -0.14930266 -0.29569006 -0.09819397
0.08057077 -0.014294172 0.053927306 -0.21121627 -0.16928673 -0.25707528 -0.02173628 -0.04345851
0.024331598 0.20483963 0.0013687686 -0.09238514 0.22492455 0.06894103 0.08723372 -0.061325226
-0.0029947462 -0.14035138 0.12824039 0.0004544687 -0.1880542 -0.01416343 0.14133346 -0.09603274
-0.29334602 0.012449489 -0.03553545 -0.17890832 -0.03687598 -0.37990677 0.06102482 0.29930174
0.1768149 -0.11847014 0.24114498 0.08970317 0.15629776 0.23845221 -0.11819707 0.0018311295
0.26274106 -0.10397498 0.084251806 0.027184917 -0.23897406 -0.35014093 -0.051354915 0.0067668697
-0.20563969 -0.25737 -0.20123586 -0.34762767 -0.89376855 -0.4999297 -1.3257859 1.0403329
-1.2921596 -0.4442141 -0.18307239 -0.11802821 0.087058365 0.06185706 -0.0009915857 -0.1668874
-0.034675393 -0.18495446 0.06267184 -0.041496027 0.056000974 -0.0006553723 -0.21540666 0.08844581
0.0751037 -0.10585134 0.20423752 0.03425095 -0.030564714 -0.13913548 0.017312475 0.06491624
-0.060790453 -0.17518988 -0.20436987 0.47360438 0.08080194 -0.1626836 0.0075148004 1.0917373
-0.011425503 -0.60347736 0.09924039 0.16548005 -0.22229365 0.028690506 0.70280546 -0.71323436
-0.038729683 0.57267654 0.6222192 -2.3622003 0.15048422 -2.9336832 0.17176646 2.0387142
-0.32654884 -0.21599068 0.32323357 0.2887579 1.0252656 0.33799186 0.3152928 -0.6423742
0.9168683 0.24988888 0.32438424 0.27444908 0.15058112 -0.44111624 -0.23290218 -1.7261461
0.088124216 -0.6070047 -0.6002975 -2.133985 -0.007911688 -0.20808855 0.039710872 0.12170449

weight f4 [102, 36]
00000000: 1e00 88bd f7ea 0ebe c0b4 2c3d de5a 8f3d
00000010: 92ba ae3d 2025 1cbd 36e6 dc3d 60e3 a5bb
00000020: c0ed f4bd 38f1 95bd 34f1 0ebe 7611 9bbd
00000030: f8fa e6bc 2c19 7f3d e889 16be 6373 e7bd
00000040: 68f1 9d3c 4e46 23be dcc4 2dbd 9ec7 bbbd
00000050: 1379 8abd 40a8 6fbd 46dc 2bbd 602f e43c
00000060: e2ed 05be 7865 973d bd50 123e aef9 07be
00000070: 0e96 84bd 1a7d d73d 6ae5 b93d 7696 0cbe
00000080: c02b 32bc 1ca8 55bd e0ce a53d ccad 17be
00000090: 6019 11be 067f bbbd b20c d73d c08c 3d3d
000000a0: f9cd 1d3e 66ab 74bd d85e fb3c d05a 2cbc
000000b0: dbe8 cfbd 42fd e53d 8061 a6bc 0812 c4bc
000000c0: 697d 163e a0e5 19be 04fc 4b3d a658 39bd
000000d0: a0ad 543d e613 0fbe e08c f33c f0de 49bd
000000e0: f610 cabd 2bb5 09be ce59 903d e89f ffbd
000000f0: f63e f73d 06a6 85bd 26ba 4fbd 2028 983c
00000100: c320 86bd fe3a 8bbd 4eca 11be 8c08 5a3d
00000110: 3794 0abe 00a5 103b a263 b33d 3433 763d
00000120: 6098 8abd 48dd 3bbd d260 433d d27a 4ebe
00000130: a8dc 51be ce5a d93d 0004 b23d 0095 1abe
00000140: 6304 59be fd31 42be aba2 b33b 24ef 7dbd
00000150: 662a 93bc f6a5 34be 0ca1 29be 8666 97bd
00000160: 3df9 d13c 2f41 09be a832 fbbd ada8 4e3c
00000170: 4ca1 1e3d 9274 a7bc a8f7 dd3c 31f4 04be
00000180: ee2c a43d c0d4 5dbe 8d4c 8d3d 0980 64be
00000190: 755a 8cbd c0da 813a 13de 04be 8290 31bd
000001a0: 43fa d73c 574e a7bc 5fcc e4bd 3073 efbd
000001b0: 434e a6bd 44c0 1c3d 1033 18bc 63e2 063e
000001c0: 72bf a43d c45d 673d 80d2 61bc aa0b f43d
000001d0: 5ce5 32bd 2f69 10be 3ece 923d 6317 07be
000001e0: 5235 bd3d f636 ccbd befa 1cbe e8ea d03c
000001f0: f075 20bc 863c 20be c09f b03c 3ec3 963d
00000200: 6047 63bd 505f f1bd 1367 ddbd 6080 d6bd
00000210: 4897 bdbd 7659 e33d 8765 00be bb30 153e
00000220: d296 973d 00f9 9dbd a848 97bc ac6d 053d
00000230: f38f 0fbe f834 e8bd a686 9b3d d0de 9e3d
00000240: d91a 16bd 548d 7bbd be28 d8bd 4e0d e8bd
00000250: 66d7 ca3d ebe1 4b3d bbdd 9b3c 092d 3abe
00000260: 92d0 3abe 9041 ccbd 39fd 9c3d f854 4abe
00000270: 1910 45be 9162 843d 25d2 a73b c7d3 3dbd
00000280: 95ca 89bd 9839 1dbc d98e 843d b3c7 8f3d
00000290: 4b17 4dbe c9d7 953d a024 0dbe 050d 5ebd
000002a0: 8cbf c53d 6b84 cbbb b988 343d 36b2 a83d
000002b0: 6da2 5bbe 18bd 36be b3c8 ee3d fe33 913d
000002c0: 739f 6fbe bc29 a0bd d1c1 38be 33e4 fabd
000002d0: 88e2 a03c 9cd8 01bd e0b6 05be c31b ddbd
000002e0: fc31 21be 0bb9 efbd ce2e ea3d 30c5 093d
000002f0: c02c 40bd e1c6 153e 92b9 f13d 46f8 0cbe
00000300: 88bc e3bd 1c05 48bd 1fd8 1cbe 92e7 833d
00000310: 027b c53d 92f6 05be c20e a13d ee58 c0bd
00000320: 30d9 5dbc 08a9 8ebc 78da a03c d631 38bd
00000330: 5dbc 133e 207c 1f3d e341 17be 0074 11bc
00000340: 3017 2d3d b137 053e 73ed c1bd a69a 9f3d
00000350: 80bc 823a 0208 bb3d 26cd b53d 3b5e 87bd
00000360: bf37 933b 89ed 27be 5ab1 adbc 6e6a df3d
00000370: 56aa d23d 7199 96bb 982d 13be a37b b7bd
00000380: 8379 473c b0ce cbbd 4e92 a03d c583 a7bd
00000390: b3da 05be 4d58 60bd 0e93 f63c d198 f3bc
000003a0: 0bfd 41be 97de 9b3d 0fc1 3dbe 65c9 c13d
000003b0: 52dc 273c 4f90 08bd 39cb 06bd acff 1cbe
000003c0: 2194 11bd 0228 cc3d 5e83 3d3c 041e cdbd
000003d0: 15bb 5cbe 004d 093d 4169 c33d e0cb 81be
000003e0: f617 ac3c 0d9f 8cbd ee1b 15be a55a 33be
000003f0: 38c1 fbbd e09d 71bd 7a13 b63d cebd d7bd
-0.06640647 -0.1395682 0.042164564 0.069997534 0.08531679 -0.038121343 0.10786097 -0.0050625056
-0.1195941 -0.073213995 -0.13959199 -0.0757169 -0.028195843 0.062279865 -0.14701045 -0.11301305
0.01928015 -0.15944788 -0.042424068 -0.09168933 -0.06761374 -0.058510065 -0.041958116 0.027854621
-0.13079026 0.073924005 0.14288612 -0.13278839 -0.06473933 0.10521908 0.090769604 -0.13729271
-0.010874689 -0.052162275 0.08096099 -0.14812392 -0.14169836 -0.09155087 0.10500468 0.046276808
0.15410604 -0.05973377 0.030684873 -0.010519698 -0.101518355 0.11229946 -0.020310163 -0.02393438
0.14696278 -0.15029001 0.049800888 -0.045250557 0.051923394 -0.13972434 0.02973026 -0.049284875
-0.09866516 -0.13448016 0.07048379 -0.124816716 0.12072556 -0.06525807 -0.050714634 0.01857382
-0.065492176 -0.06798361 -0.1423733 0.053230807 -0.13533102 0.0022071004 0.08759238 0.060107425
-0.067673445 -0.045865327 0.047699757 -0.2016404 -0.2049433 0.10613023 0.08692169 -0.15095901
-0.2119308 -0.18964382 0.005482038 -0.06199564 -0.017964553 -0.17641434 -0.16565341 -0.07392602
0.025631541 -0.13403772 -0.12265521 0.012613458 0.038728043 -0.020441327 0.02709563 -0.12983777
0.08016382 -0.21663189 0.068993665 -0.22314467 -0.06853191 0.0009907112 -0.1297534 -0.043350704
0.026364451 -0.020423098 -0.11171793 -0.11691892 -0.08120396 0.038269296 -0.009289518 0.13172297
0.08044328 0.056485906 -0.013783097 0.11916287 -0.043675765 -0.14102624 0.07168244 -0.13192515
0.09238686 -0.099714205 -0.15330026 0.025502637 -0.0097937435 -0.15648088 0.02156055 0.07361458
-0.05548799 -0.117857575 -0.108106755 -0.10473704 -0.0925737 0.11101048 -0.1253873 0.1456937
0.074018136 -0.077135086 -0.018467262 0.032575294 -0.14019756 -0.11338228 0.075940415 0.07757342
-0.036646698 -0.061414078 -0.10554646 -0.11330663 0.09904365 0.049776 0.019026628 -0.18181242
-0.18243626 -0.099734426 0.07665486 -0.19758976 -0.19244422 0.064641126 0.0051214867 -0.046344545
-0.067280926 -0.009596251 0.064725585 0.070205115 -0.20028417 0.073165484 -0.13783503 -0.054211635
0.09655675 -0.006210854 0.0440757 0.08237116 -0.2144868 -0.17845571 0.11659374 0.07089995
-0.23400669 -0.0782046 -0.18042685 -0.12250557 0.019639269 -0.031700715 -0.13058043 -0.10796311
-0.15741724 -0.11705216 0.114347085 0.03363532 -0.046917677 0.14626648 0.11802973 -0.13766584
-0.11119944 -0.048832998 -0.15316819 0.06440653 0.096426025 -0.1308234 0.07864143 -0.09391962
-0.013540551 -0.017414585 0.019635424 -0.044969402 0.14427324 0.038936734 -0.14771228 -0.008877754
0.04225844 0.13009526 -0.09469118 0.07793169 0.000997439 0.09132387 0.088770196 -0.0660977
0.0044927294 -0.16399206 -0.021202732 0.10908972 0.10286395 -0.0045959284 -0.14372861 -0.08959129
0.012174967 -0.09951532 0.078404054 -0.0817943 -0.13071708 -0.05477171 0.030099418 -0.029735954
-0.18944184 0.07610815 -0.18530677 0.09462241 0.0102454 -0.03334075 -0.032908652 -0.15331906
-0.035541657 0.099685684 0.011566965 -0.10015491 -0.21555741 0.0335207 0.0954156 -0.25350857
0.02100752 -0.06866274 -0.14561436 -0.17515047 -0.12292713 -0.058988452 0.088904336 -0.10534249

bias f4 [102]
00000000: 20cb b0bb e379 05be a142 723d 7368 c8bd
00000010: 4767 ea3d fd22 243e 9174 a4bc 72ba 27be
00000020: cdf2 353d 7341 87bc 4a8c 08be eb8a 7abe
00000030: 0de6 33be 8110 31bd d46b ba3c 1a37 ad3d
00000040: 988c 42bd b5c9 36be d239 23be 1086 4ebc
00000050: dd03 ab3d d7a4 49bd 603b 86bc b46d 473d
00000060: 758f 213d 8b69 c13d 0501 113e 19eb 71be
00000070: e6f5 903d 76f2 44bd 807b 593d 35ad 3d3c
00000080: 22e7 c33c 0c86 1bbd 9c1f 55bd f08a 55bc
00000090: 0291 bbbd 9814 99bc 64f8 b5bd 40fa 6e3d
000000a0: 101f 0a3d 728f 5a3d 1831 33bd c7c6 09be
000000b0: 388e c7bd 17b8 29be 7d27 053e 6caa 2fbd
000000c0: fc36 b2bd c7e9 3fbe 9ea3 f03d 74c9 413d
000000d0: acc3 af3d 5117 03be 7fe7 f0bd 501a 30bc
000000e0: 8f5a 2a3e c68c 14be 4a79 d23b 62c7 f73d
000000f0: f646 e6bd ae31 babc 305d d1bd dc89 5b3d
00000100: 9935 043e 0aa8 553d 30df 443c ef0e d63d
00000110: 6d58 87bd c17c 13bd b559 f7bd ca85 39bd
00000120: 7b9a 99bd 42aa 1ebe db14 aebd 9fd4 1d3e
00000130: 30b5 873e 2c97 61bd 708d d4bd c0cd d8bc
00000140: 121d 21be 6282 86bd ce29 d23d 12bc af3d
00000150: b820 5bbe 9aac 38be e30e 25be 3ddd 0bbe
00000160: 2e34 c0bd e531 18bc 7d70 3dbe 804a d6ba
00000170: 6580 0a3e ce1f a83d 7818 9e3c e2dd db3d
00000180: 5088 0c3e 3eae 1d3e 842a 04bc 5800 b13c
00000190: 82e1 bb3d 409f 5abb
-0.005395308 -0.13034777 0.059145574 -0.09785547 0.1144548 0.16028972 -0.020075114 -0.16379717
0.044421006 -0.0165107 -0.13334766 -0.24467055 -0.17568226 -0.04322863 0.022756495 0.084577754
-0.047497362 -0.17850383 -0.15940025 -0.012605205 0.08350346 -0.04922947 -0.016385734 0.048688605
0.039443452 0.09443959 0.14160545 -0.23624839 0.070781514 -0.04808279 0.053096294 0.01157694
0.023913924 -0.037969634 -0.0520321 -0.013033614 -0.091585174 -0.018686578 -0.088852674 0.058344126
0.03372103 0.053359456 -0.04374799 -0.13454734 -0.09743923 -0.16574131 0.13003345 -0.042887136
-0.08701894 -0.18741523 0.117499575 0.04731126 0.08582243 -0.12801863 -0.117629044 -0.010748461
0.16636108 -0.14506826 0.00642315 0.12098576 -0.112440035 -0.022728767 -0.10222852 0.05359827
0.12911071 0.052162208 0.012016103 0.10452067 -0.06608663 -0.036007646 -0.12077657 -0.045293607
-0.07500168 -0.15494636 -0.085000716 0.1541314 0.26505423 -0.05507581 -0.103785396 -0.026465297
-0.15733746 -0.06567837 0.1026188 0.085807934 -0.213992 -0.18034592 -0.1611896 -0.13658614
-0.093849525 -0.0092892395 -0.18499942 -0.0016349107 0.13525541 0.08209191 0.019298777 0.1073568
0.13723874 0.153985 -0.008066777 0.02160661 0.091738716 -0.003335908

weight f4 [102, 50]
00000000: d4a6 073d f2d2 b13d 12b6 bc3d 4acb 32bd
00000010: d81e b93c 0008 1bba 3428 b73d 30ba 013d
00000020: c0e6 0fbc d18f 8fbd a832 afbd e20a 4abd
00000030: 1817 fdbd cb92 c5bd 3db0 0e3e 0a35 9d3d
00000040: 5c19 a9bc 405a 30bb fd0e c5bd 84b6 f0bc
00000050: c8e3 813c cbf5 0fbe 98b1 86bd 3273 f83d
00000060: 3a5f b4bd c04e 9ebd 5661 8d3d 4261 c53d
00000070: b03b babd 9f4b 093e c477 dabc 544d 403d
00000080: c434 153d fc36 09be 91db c2bd 28c9 8a3c
00000090: 8d3c 90bd 7c91 a3bd b537 0f3e 7074 013d
000000a0: 6494 07be 2a8f a0bd 5d6a 0fbe 984c df3c
000000b0: d838 3b3d c027 e93c c286 56bd 20fd d63d
000000c0: 0216 d53d e060 eebc 926f f63d 30bc b0bd
000000d0: 5062 cc3c c0ed 2dbb 5d29 04be cea7 f53d
000000e0: 6032 f6bb 1493 88bc 538d 083e 1476 15bd
000000f0: d004 abbd 160d da3d 8090 bc3c 60be cc3b
00000100: ac49 943d d993 e2bd a261 00bd b95d 0c3e
00000110: 6089 59bc c61a de3d f395 0c3e e87e 773d
00000120: 107d 93bd 94b0 5ebd b042 163c ddee 04be
00000130: c859 65bd e4e7 9cbd 261a c8bd b4ca 673d
00000140: f826 7abd 587f f03c b083 54bd a0d8 d4bd
00000150: 3565 f7bd b5e2 f9bd 7af8 5abd 60b8 8b3c
00000160: ce1e dabd 40fc e3bc 603f 84bc dee6 efbd
00000170: 9834 94bd e4cb 53bd 1a33 f1bd 04dc 803d
00000180: 48f9 f7bd 00bb 373c 5c08 aebc 06a8 8e3d
00000190: 323e 633d a5c3 f2bd fd28 d9bd 2235 843d
000001a0: 6af5 12be b6d3 503d 5d53 14bd e1c7 86bd
000001b0: b800 463d 014d 593d a358 1abe e238 ebbc
000001c0: a728 993d acd1 07be 74b5 07bd bd32 a0bd
000001d0: 12c9 043d 61f5 9dbd 64f9 36be e2b1 443d
000001e0: 0a43 fabd c3c2 643d 40f4 2b3c eb9e 0b3d
000001f0: 0c1b 42be 5326 89bd 2f18 bbbd 0a6d 9ebd
00000200: 9a28 33be 8450 1bbe 153c 09bd 2249 fcbd
00000210: 9c53 eebd 47c8 1dbe 06bd a7bd 25d4 923d
00000220: 520f 2bbd 198c 8fbd e52a c6bd ac87 18be
00000230: 1c9f c4bc b76c f8bd ab2f 52bd 4ee4 03be
00000240: 22a1 113d 490f 22be 35d2 c93c fc6d 943c
00000250: e99d 00bd 1c19 d7bc 7e28 82bd 5260 b03d
00000260: d238 df3d 30c7 eebc c052 e1bd 7aa5 2ebd
00000270: 9ef9 acbd d0c3 7e3d 8eca 9cbd b87b db3d
00000280: 1a11 dbbd 781d f0bc 4049 14bb f4c1 7a3d
00000290: 9484 873d f0c4 9bbc 20ab b93d 78fa 9d3d
000002a0: a847 fabd 989f 2cbd 18ca c63c e0d9 3d3c
000002b0: aae1 f7bd b855 c73c e641 c4bd ccae 84bd
000002c0: 429e df3d f330 d9bd ada4 c4bd ce52 a13d
000002d0: 202e dcbd 7055 3fbc c49b 353d 3934 053e
000002e0: 8ea2 853d 80f4 dc3a 6c3f 6c3d e73a 0e3e
000002f0: fc58 b03d ea01 07bd 3832 44bd 20ba f6bb
00000300: b6c4 823d 5e3f 43bd 0098 d7b9 84cf 0bbd
00000310: 4e6d 50bd 4021 8fbd 7603 883d 0841 4b3d
00000320: 074e 08be 8a3b ffbc 1197 82bd 7867 39bc
00000330: eaeb 943d b751 47be 6255 2abd fb3a 0d3d
00000340: a8e5 c3bc 2130 bebd 38ba d13d 2984 83bc
00000350: fde5 a3bd c734 f5bc b658 cdbd 3459 00bc
00000360: 87f0 0dbe e208 8c3c 93d3 283c f636 18be
00000370: cab1 ab3d 7b8a 25be 8497 ae3d e74d f13c
00000380: 4dd3 733c f342 c8bd f951 88bd 4e89 2bbc
00000390: 94d0 dabd 37fe 19be 2c5a 44bc 1e44 d93b
000003a0: 95be bebd 95be 0cbe a994 9ebc 7ef9 f7bd
000003b0: a618 403d 172b dfbb 9560 7d3d ef07 5bbb
000003c0: 2382 ae3d c0fc e7bd da03 3f3d 818e 93bd
000003d0: 814c 6e3b ed03 b939 7145 a83d 9774 46bd
000003e0: f7a0 2a3d 2a6d eabc 50c1 65bc fbb5 09be
000003f0: bc14 c03d c8e3 9a3d d052 fb3c b633 843d
0.033118084 0.08682813 0.09214415 -0.043650903 0.022597715 -0.0005913973 0.08943215 0.031671703
-0.008783042 -0.07009853 -0.08554584 -0.049326785 -0.123579204 -0.09647139 0.13934417 0.07676132
-0.020641975 -0.0026909262 -0.096219994 -0.029383905 0.015855685 -0.14058606 -0.06576842 0.12131347
-0.088072255 -0.07729864 0.06903331 0.09637691 -0.09093416 0.13407753 -0.026668437 0.046948746
0.036427274 -0.13399881 -0.09514535 0.016941622 -0.07042799 -0.07986733 0.13986094 0.031605184
-0.132402 -0.078398064 -0.14005418 0.027258202 0.045708507 0.028461337 -0.05237461 0.104974985
0.10404588 -0.029098928 0.12032999 -0.08629644 0.024949223 -0.0026539415 -0.12906404 0.11994897
-0.0075133294 -0.016671695 0.13335161 -0.03648956 -0.08350527 0.10647027 0.023018122 0.0062482804
0.07240614 -0.11063356 -0.03134311 0.13707627 -0.013277382 0.108449504 0.13729076 0.06042376
-0.07201588 -0.054367617 0.009171173 -0.12981744 -0.055993825 -0.07661417 -0.097706124 0.056589797
-0.06107232 0.029357597 -0.0518834 -0.103928804 -0.120798506 -0.12201444 -0.053459622 0.01705569
-0.10650407 -0.027830243 -0.0161435 -0.11713956 -0.07236594 -0.051708117 -0.11777325 0.06291965
-0.121080935 0.011214018 -0.02124422 0.06965642 0.055479236 -0.118537225 -0.10603521 0.06455447
-0.1435143 0.050983153 -0.036212314 -0.065810926 0.04834053 0.053051952 -0.15072875 -0.028713647
0.07478457 -0.13263577 -0.03313203 -0.078221776 0.032418318 -0.07712818 -0.17868572 0.048021205
-0.12219818 0.0558498 0.010495245 0.034087103 -0.1895563 -0.06696763 -0.09135472 -0.07735641
-0.17495957 -0.15167433 -0.033504564 -0.123186365 -0.11637041 -0.15408431 -0.0819035 0.071693696
-0.041762657 -0.070091434 -0.0967615 -0.14895505 -0.02400165 -0.12130111 -0.05131499 -0.1288006
0.03555406 -0.15826143 0.024636367 0.01811885 -0.031400595 -0.02625709 -0.063553795 0.08612122
0.108995095 -0.029147714 -0.110021114 -0.04263828 -0.08446048 0.06219846 -0.07655822 0.10716957
-0.10696621 -0.029310927 -0.0022626668 0.061220124 0.06617084 -0.019014806 0.09065843 0.07713789
-0.122206986 -0.042144388 0.024266288 0.01158759 -0.12103589 0.024332866 -0.09582882 -0.06478652
0.10918857 -0.106050394 -0.09601722 0.07877122 -0.10750985 -0.011678085 0.044338003 0.13008203
0.065251455 0.0016857535 0.05767767 0.13889657 0.086107224 -0.03296081 -0.047899455 -0.007529512
0.06385176 -0.047667854 -0.00041121244 -0.03413345 -0.05088549 -0.06988764 0.06641285 0.049622566
-0.13311015 -0.03115632 -0.0637647 -0.011316173 0.072715595 -0.19464765 -0.041585334 0.034480076
-0.02391322 -0.092865236 0.102405965 -0.01605423 -0.08002851 -0.029932393 -0.10026686 -0.007833768
-0.13861285 0.01709408 0.0103043495 -0.14864716 0.0838352 -0.16166107 0.08524993 0.029456092
0.014881921 -0.097783946 -0.0665626 -0.010469748 -0.10684314 -0.15038382 -0.011984389 0.0066304347
-0.093136944 -0.13744576 -0.019357996 -0.12108134 0.046898507 -0.0068105566 0.061859686 -0.0033421477
0.08520915 -0.11327505 0.046634533 -0.07204915 0.0036361518 0.00035288875 0.0821637 -0.048451032
0.041657414 -0.028616507 -0.01402314 -0.13448326 0.09378955 0.07562977 0.030679137 0.064551756

weight f4 [102, 102]
00000000: dd70 b03d c52b 8fbd 9a4e d3bc 2c70 ccbc
00000010: 220c a13d a6bc 0cbd c952 ad3d 439f 983d
00000020: d553 8cbd b542 6cbc 7ddd 3bbc ee43 c33d
00000030: e998 c4bc af43 44bd 34d5 9cbd c636 debc
00000040: 0b92 21bd 3949 423c add0 5ebd d1e5 c53d
00000050: e233 503d f1af 81bd dbc7 51bd 24d6 bb3c
00000060: 84fb 793b 86c4 08bd 9c72 a33c 2fba c7bc
00000070: b12d 2abd aa95 a5bd 67f4 bc3d f3b7 b4bc
00000080: 70f9 d23c 9107 923d 1ab8 03bd 0244 1a3d
00000090: e27c 093d 8d61 bcbd b3c8 7fbd b870 6b3c
000000a0: 3be3 c63d 9bc7 693d 38bc 8bbd fa73 a93d
000000b0: b836 a9bd b89d f7bc 11ec b53d 399d 94bd
000000c0: 95bc acbd 890e 87bd c807 bebd 665a 093d
000000d0: 28cd 83bd a35c 423c ba07 f2bc 84e4 91bc
000000e0: b844 bfbd 5a0c 093d b011 2f3c 44a8 a1bd
000000f0: a839 6abc 3596 b93d 7f5b bd3d 92ac 3e3d
00000100: d64b 593d 1fd8 97bd b08a 343c ceee c23d
00000110: 40e6 8ebd 3b4a c43d b811 2ebd a2c7 503d
00000120: ebb8 b93d 9254 503d 80f8 bf3d b8e2 f3bc
00000130: f13f 21be a0dc 6cbb a0ea 62bb ae65 183d
00000140: 41b9 853d f26a a33d f8d8 113c 9463 e03c
00000150: ab8d be3d f1ee 86bc 3f89 503d 13de 93bd
00000160: 0164 32bd 0169 01ba 24a2 efbc 80a7 7b3b
00000170: bdda b23d 738c 853d b423 f7bc fdac c23d
00000180: 69e2 bc3b ab17 b1bd 27aa 22bd 9c8f b63c
00000190: 38eb 273c c0ca 573c 7aea aebd fb72 adbd
000001a0: d7d3 873d f0a6 bbbc 9522 a03d 723f 133d
000001b0: c527 85bb 2f0a bb3d 011b 0d3d 205a 673d
000001c0: e83e 4a3d 5c73 b3bd bc97 b1bd d11d 07bd
000001d0: 2503 643c 5389 bcbd 2105 c6bd fcc3 ecbb
000001e0: 2740 0b3c 787b 12bc b3b5 1d3d 4c9a dabd
000001f0: 2737 9e3d ac3b c2bc 04d3 b2bd 86bf 02bd
00000200: b3b2 8f3d 6ec6 a63d bad5 5c3d 8039 d8bb
00000210: c26e 763d 808b 7dbd 29ad 653d 2eb3 3e3d
00000220: eda5 983d be6d 85bd 1248 74bd e38f b4bd
00000230: de91 e8bd 089f 86bc eea8 463d 182b c93d
00000240: 4d5d f0bb 2979 8e3d 8b35 c23a 114f aabd
00000250: d5a5 1ebd f30f babd b471 47bd f1aa a43d
00000260: 0a31 6f3d fb8e 193d cfd4 f23c 860b 93bd
00000270: c17a 043d 75fa a43d f9cb ac3d 2071 053b
00000280: ae61 c6bb 1674 7a3d e471 b9bc 598c 6cbd
00000290: c677 85bd d758 c0bd 6407 a73c 9cd5 faba
000002a0: fedb 83bd db58 a33d 655e 4b3d 7828 b73d
000002b0: 6c82 ca3c d2b4 6bbc 3656 653d 8433 823c
000002c0: 0fb2 a93d 8eb7 323d e554 1b3e 614b 39bd
000002d0: 08bb 20bc c51d c2bd 98fa 65bd 54ce de3b
000002e0: f39c 40bd d042 ebbb fe3b 1cbc 9757 39bd
000002f0: 91e5 2c3d f20f 19bc c494 c5bd 102a ae3c
00000300: d076 b3bc 60ef 513b d9a7 50bd c0df e13b
00000310: cf59 8bbd c2d7 14bd ae09 59bd ab97 89bd
00000320: c33d c93c c59f c9bd 40c5 653b 0057 c73a
00000330: bcd5 dcbc 3e8b 8bbd 7b63 cbbd c0fa ee3a
00000340: 0228 66bd f2f8 adbd 7b12 a53d 30d3 5dbc
00000350: 5c61 b3bd 74d7 b33d 7386 1f3d 27a1 1239
00000360: 0291 a63c 8ab6 313c 93da 6e3c 960c 543d
00000370: b4f8 0337 974a a5bd 5227 093c 9061 7c3c
00000380: dd84 273d 080b 893d 007d f2bc c6e4 653d
00000390: 8839 b5bd 26dc cebb d38e 44bd c845 56bb
000003a0: 3172 5fbd 0c67 f13c d0ab 93bc 2622 e13d
000003b0: a9f6 323d b654 3c3d a63b 8fbd 743f f6bc
000003c0: c224 773d 8ff1 a53d 7681 9dbc b9ed 8e3d
000003d0: 00c4 49bb 1416 4c3d 6ae2 a7bd 5798 a6bd
000003e0: 156f 37bc 5212 8cbd b034 53bd 11ff ae3d
000003f0: a86b 3fbc f614 a8bd 5a09 763d c402 78bd
0.08615277 -0.0699077 -0.025794316 -0.024955831 0.07863642 -0.034359597 0.08463056 0.07452252
-0.06851927 -0.014420201 -0.011466381 0.09534441 -0.023998694 -0.04791611 -0.07657853 -0.027125727
-0.039445918 0.011858278 -0.054398227 0.096629746 0.05083073 -0.06332386 -0.051215988 0.022929259
0.00381443 -0.033390544 0.019952111 -0.024380771 -0.04154748 -0.08085187 0.092263035 -0.02206037
0.025753707 0.071303494 -0.032157995 0.037662514 0.033566363 -0.09198294 -0.06244726 0.014370136
0.097113095 0.057075124 -0.06823009 0.08274074 -0.0826239 -0.030226573 0.08882917 -0.0725655
-0.08434407 -0.06594569 -0.09278828 0.033533476 -0.06435615 0.011862907 -0.0295447 -0.01780916
-0.09339279 0.033459045 0.010685369 -0.07893422 -0.014295973 0.09061853 0.09245967 0.046551295
0.05305084 -0.07414269 0.011019394 0.09518205 -0.069775105 0.09584471 -0.042497367 0.050971635
0.090684734 0.050861903 0.093735695 -0.029771194 -0.15747048 -0.0036142245 -0.003462471 0.037206344
0.06529475 0.079793826 0.008901827 0.027391233 0.09304365 -0.016471358 0.050912138 -0.07220092
-0.043552402 -0.0004936606 -0.02925212 0.0038399398 0.08733127 0.06520929 -0.030168392 0.09505651
0.005764295 -0.086470924 -0.03971305 0.022285275 0.010248952 0.013170898 -0.085408166 -0.084691964
0.06632202 -0.02290675 0.07819096 0.035949178 -0.004063579 0.09132802 0.03444958 0.056482434
0.0493764 -0.087622374 -0.08671519 -0.03298742 0.013916765 -0.0920588 -0.09668947 -0.0072255116
0.008499182 -0.00894057 0.03850336 -0.10673961 0.07725363 -0.023710094 -0.08731654 -0.031920932
0.07016506 0.08143316 0.053914763 -0.0065986514 0.06016422 -0.061900616 0.05607334 0.046557598
0.07453523 -0.06515072 -0.059639044 -0.08816507 -0.11355947 -0.016433254 0.048500948 0.098226726
-0.007335341 0.06956703 0.0014816982 -0.08315862 -0.03873237 -0.09085073 -0.04869242 0.08040417
0.058396377 0.037489872 0.02964249 -0.07179932 0.03234363 0.080555834 0.08437342 0.0020361617
-0.006054125 0.061145864 -0.022637315 -0.057751033 -0.065169856 -0.09391945 0.020389266 -0.0019137147
-0.064384446 0.07975932 0.04965057 0.08943266 0.024720393 -0.014386373 0.05599042 0.015893705
0.08285915 0.043632083 0.15169103 -0.045237903 -0.009810217 -0.09478334 -0.056147188 0.0067994986
-0.04702468 -0.0071795955 -0.009535788 -0.045249548 0.04221112 -0.009342181 -0.096475154 0.021260291
-0.02190724 0.0032033548 -0.050941322 0.006893128 -0.06804239 -0.036338575 -0.052987747 -0.067183815
0.024565583 -0.09844927 0.0035060197 0.0015208423 -0.026957385 -0.06813668 -0.09931084 0.0018232688
-0.0561905 -0.08494748 0.080601655 -0.013539121 -0.08758804 0.08781329 0.03894658 0.00013983679
0.020332817 0.010846743 0.014578479 0.051769815 7.866114e-06 -0.080708675 0.008371191 0.01540412
0.040898193 0.06691557 -0.02960062 0.05612638 -0.08848864 -0.006312865 -0.04798777 -0.0032695401
-0.05455226 0.029468082 -0.018026263 0.109928414 0.043692265 0.045979224 -0.06993799 -0.030059554
0.06033779 0.08102714 -0.01922677 0.06978936 -0.003078699 0.049825743 -0.08197482 -0.08134525
-0.011195918 -0.06839432 -0.05156392 0.08544744 -0.011683382 -0.08207123 0.060067512 -0.060549513

bias f4 [102]
00000000: 1479 113e 40cb 65bd f40e 03be 8d14 6d3d
00000010: bfe7 3b3d bba6 553e 9f08 37be 6497 d0bc
00000020: e81f f53c d9bd 883d 1685 aa3b ee09 02be
00000030: bdc9 4c3c 0163 e0bd 0943 d7bd 4dcd 663e
00000040: 84b5 77bd 98a4 d53c bd70 3ebe 4149 edbd
00000050: 31b5 b8bd 14c8 cdbd ca8c 7cbe 5690 b53d
00000060: aaf7 39be c640 f03a 889f 45bd ba3b 42bc
00000070: 94a4 123e 66a2 5e3d 64d4 9b3e 20c2 9fbe
00000080: c0c4 b5bc 13eb 443d 9acc e6bc 8407 d1bd
00000090: 7215 c43b 65b8 bcbc 0f8b 3f3d ded7 1a3d
000000a0: 58f9 013e d768 303e 8aee d13c b026 163e
000000b0: e07e 083c f999 533e ba37 3b3d 5670 46be
000000c0: d42e a2bd aea0 80bd 6a00 df3d e600 333e
000000d0: b15b 84bb a950 803d d900 b53c f1c7 c63d
000000e0: 7071 193e 8f64 22be 43b3 723d d262 dfbb
000000f0: db9a e9bc c1cc 12be 7e7c da3d edbc bfbc
00000100: ed78 b23c 10e8 99bd a7f7 913d a398 1bbe
00000110: 563b 04be edb2 86bd 6828 e43c fda9 4ebd
00000120: 3589 413e 93e3 16be 7326 14be 7c8c 963d
00000130: bf72 5d3d efb5 04be eaf1 4f3e 0ce9 383e
00000140: 81f4 09be bb99 03bb 97ef 1bbe 7221 70be
00000150: a2cb 8a3e 9a40 603e fef4 b83d 2f3d e0bd
00000160: 843f fa3c 3816 35be e48a 65be 25d8 30bd
00000170: 8006 ab3d 4b3d f9bd c6e7 233d fc9b 403e
00000180: 96fb 993c a76c 4cbe 7fc2 ae3d a0d3 283c
00000190: 17ef 8b3d f608 163d
0.14206344 -0.056102037 -0.12798673 0.057880927 0.045875307 0.20864384 -0.17874382 -0.025462814
0.02992244 0.066768356 0.0052038534 -0.126991 0.01249927 -0.109563835 -0.10510833 0.22539254
-0.06047584 0.026079461 -0.18597694 -0.11586238 -0.090189345 -0.100479275 -0.24663082 0.088654205
-0.18160883 0.0018329851 -0.048247844 -0.01185506 0.14320594 0.054354094 0.3043548 -0.31202793
-0.022188544 0.048075747 -0.028173734 -0.102065116 0.005984002 -0.023037145 0.046763476 0.037803523
0.12692773 0.17227493 0.02562644 0.14663196 0.008331031 0.20664205 0.045707442 -0.1937879
-0.07919088 -0.06280647 0.10888751 0.17480811 -0.004039251 0.06265385 0.02209513 0.097061045
0.14984679 -0.15858673 0.05925299 -0.0068172 -0.028516224 -0.1433592 0.10668276 -0.023405517
0.021786178 -0.075149655 0.07127314 -0.15194945 -0.1291326 -0.06577096 0.027851298 -0.050455082
0.18899997 -0.1473525 -0.14467792 0.07351014 0.05406451 -0.12960027 0.20307127 0.1805765
-0.13472177 -0.0020080644 -0.15228115 -0.23450258 0.27108485 0.21899644 0.090311036 -0.1094917
0.030547865 -0.17684257 -0.22416264 -0.04317488 0.08350849 -0.12169894 0.04001596 0.18809503
0.018796723 -0.19963323 0.08533191 0.010304362 0.06832712 0.03662964

weight f4 [102, 102]
00000000: 802d 97bd 57f8 4ebe dfa1 6c3e b1a9 e23c
00000010: 9689 64bc 0c58 c83e ae6a 873d 0551 9f3d
00000020: cc76 8bbd 37a8 b5be 1135 87bd bc0f 0fbe
00000030: 68e4 c33d 4627 7d3d e586 553e 98b6 82bd
00000040: 8e5e 97be 2de0 b23d 37c9 15be 9064 27be
00000050: e10b 973d 489c 853d 019b 523c bb4d a73d
00000060: 9110 2dbc 1998 65bd 090f b4bc fd6a 863e
00000070: 6c64 f9bd 1996 683d 3328 18be 6f9b cfbc
00000080: 9961 e73c e872 773c e457 a9b9 609e fb3c
00000090: 6024 37bd c1d8 d33e 93cd 213d 30c4 f33c
000000a0: e743 403d 9e00 873d ac0a 913c b2d9 983b
000000b0: 2c8c 4d3e 0d04 3cbd c56e c8bc 7092 7f3e
000000c0: cd12 8e3d 27e4 103d 3545 8dbd 32d0 ee3d
000000d0: a5e5 9a3c 7444 eabc 4449 cabe ce91 99bd
000000e0: 41dc 3d3d e24d 0bbd b804 c93e 1061 b0bd
000000f0: 63ec 5b3c 9b6d 9f3c 94a0 f8be 141a 96bd
00000100: d038 593e 22d9 a6bd ef0a 09bd 6a02 9ebd
00000110: 5ceb 23be 48d4 66be 2c58 2dbd 14b5 ae3d
00000120: b8c6 12bd b1e4 9ebe 3859 0bbd 7c9b acbd
00000130: a45e 5d3e 2417 843e 9485 0c3b 6d7e 50bd
00000140: 7ce1 81be 19ee f7bd 2901 92bc 346e b83d
00000150: 2bb6 643e a739 243d b9ad 9f3d d52a 5dbd
00000160: 7057 873d 3449 a33d 906e a23e eda5 63be
00000170: 5689 883d d51f 4abe 3d6f 96bd aed1 a1bd
00000180: 0846 95be e35c 7d3d aecb 8d3d 3a9d c83d
00000190: dc14 ccbd 2dd9 0e3e 4e30 51be 8039 ecbd
000001a0: 7916 c03e ce06 81bd 1f75 40bd 6095 223e
000001b0: 9535 133e 1c3e 36bd 039e ad3d 9822 9eb9
000001c0: 99bb c8bc 85d7 10bf 16a2 1b3d 2607 b83e
000001d0: 2fbf 9a3d 6627 153b 4785 82bd c046 b23c
000001e0: 0799 aabc 833f 73be b088 5cbc 87d0 9bbc
000001f0: 4705 d3bd 5adb 213d 0fc6 06bc 7025 353d
00000200: 8330 583d 2eef c23e 72e2 abbd 67e9 a1bb
00000210: 50c5 3abe 072e 913d 9873 7dbd 250f 67bd
00000220: 0a77 313d 5cd7 f6bc 74dd 8e3d 6373 a2bc
00000230: 0b1d 5ebd 95b7 753d 7130 00be 1fcf 17bd
00000240: 8db0 623d f6fc b7bd e73d 073e 722d 39bd
00000250: fbf0 463b a90a 0d3e 4698 6c3d ccbb b13d
00000260: 2de6 813d bc84 e83d 87b2 02bd 9513 f33d
00000270: 1664 a83f e6b9 983c 8b65 133d d0b8 95bd
00000280: 2510 21bd 87bc 943d eab9 f3bc 864e 193d
00000290: dc89 553c ddb5 ca3c a677 203e f86e acbb
000002a0: a21e 693d 2380 86bc fab2 8ebe bfab 1abc
000002b0: ec11 253e 480e ae39 8515 1c3b e38c 14be
000002c0: 365f 723a d505 08be cdc1 ae3d 56f7 b83e
000002d0: 51fc 743d 3bd7 a93d 068c 8dbd 0748 05bc
000002e0: b043 123b deea 2a3d ca0e cc3e 20aa 8ebd
000002f0: 5a0d 593d 436f 543d 8eed 2e3d 6fda 323d
00000300: c15c 8a3d bd06 8ebd a5a1 a5bc 78d2 19be
00000310: e067 ae3c cf7e 2dbe ec34 53be 40ce 49bd
00000320: a4fc 65bc 6c75 d5bd e64a cc3c 26c6 f43c
00000330: 2194 0a3c f98b 0a3e 8711 3dbc 4a83 983d
00000340: e4c7 c2bc 9d2d 6fbe 5b00 3f3d 2325 79bd
00000350: 8f40 e73d 8c9a 933e bba4 733c 0516 e63d
00000360: 32b7 8cbd 9b7a b1bd 5cd1 0bbf 691c 37bd
00000370: 7ebe 5d3d 7008 20bc 531b f53d 0e4d 6a3e
00000380: 9de5 a43d 665f 2ebc 924f 4dbc e863 0cbd
00000390: 0da4 85bd 081e 813e 10bd e2bc 1a7a 923c
000003a0: 7fc8 fa3b c443 c7bd 1dac 8e3c e820 9a3d
000003b0: ae85 883d 7348 8abd 5148 88bd 6837 9f3c
000003c0: 8293 ea3c 4f30 89be 94ab c63c b773 773d
000003d0: 832c 953d 2cfd 0dbd d438 f73a 0c7a 19bc
000003e0: d4ab e2be 14ac 50bd d72a 11bd 1057 a9be
000003f0: 5fd4 c73d 3345 813d aaa3 0d3d 62c0 0c3d
-0.07381725 -0.20211922 0.23108624 0.027668806 -0.013948819 0.39129674 0.066121444 0.07779125
-0.06809768 -0.354799 -0.066019185 -0.13970846 0.095650494 0.061805032 0.2085224 -0.06382483
-0.29564327 0.087341644 -0.14627539 -0.16346955 0.073753126 0.06523949 0.012854339 0.08169123
-0.010563032 -0.056053255 -0.021979826 0.262535 -0.12177357 0.05678377 -0.14859085 -0.025342671
0.02824478 0.015103079 -0.00032299676 0.030715168 -0.044712424 0.41376308 0.03950269 0.029756635
0.046939757 0.065919146 0.017705284 0.004664623 0.20073003 -0.0459023 -0.024466882 0.24958205
0.0693718 0.035373833 -0.06897966 0.11660804 0.018908331 -0.028597094 -0.39509022 -0.07498513
0.04635263 -0.03400982 0.39261413 -0.08612263 0.013423058 0.019461444 -0.4856001 -0.07329193
0.21213078 -0.081468835 -0.033457693 -0.07715304 -0.16007751 -0.22541916 -0.042320415 0.08530632
-0.035834044 -0.31033853 -0.034020633 -0.08428094 0.21618134 0.25798905 0.0021441923 -0.05090182
-0.25367343 -0.121059604 -0.017822819 0.090053946 0.22335117 0.040094044 0.07796807 -0.053995926
0.06608474 0.07972947 0.31724977 -0.22231264 0.0666682 -0.19738705 -0.07345436 -0.07901321
-0.29154992 0.06185616 0.069236144 0.097956136 -0.09964916 0.13950033 -0.20428583 -0.11534405
0.37517145 -0.06300126 -0.046986695 0.15877295 0.14375909 -0.044492826 0.08477404 -0.00030161883
-0.024503516 -0.56578857 0.037996374 0.35942954 0.075559966 0.002275908 -0.06373077 0.021762252
-0.020824922 -0.23754697 -0.013460323 -0.019020332 -0.10303741 0.03951583 -0.008225932 0.044225156
0.05278064 0.38073105 -0.083928004 -0.004941154 -0.18239331 0.07088857 -0.061877817 -0.056410927
0.043326415 -0.030131988 0.069758326 -0.019830411 -0.054226916 0.05998953 -0.12518479 -0.03706276
0.055344153 -0.08983795 0.13207208 -0.045209356 0.0030356038 0.13773598 0.057762407 0.086783975
0.06342731 0.11353442 -0.03190854 0.11868969 1.3155544 0.01864333 0.03598551 -0.07310641
-0.039322037 0.07262521 -0.029751737 0.0374284 0.0130333565 0.024744922 0.15670642 -0.005262252
0.05691398 -0.016418522 -0.27870923 -0.0094403615 0.16120118 0.00033198507 0.0023816538 -0.14506869
0.0009245755 -0.13283475 0.08533058 0.36126202 0.05981094 0.08293005 -0.06911473 -0.008134848
0.0022318177 0.041727893 0.39855033 -0.069660425 0.05299125 0.05186392 0.04270702 0.043665346
0.06755973 -0.06934879 -0.02021868 -0.15021694 0.021289766 -0.16942905 -0.20625657 -0.04926896
-0.014037285 -0.10422787 0.024938058 0.02987964 0.008458168 0.13529958 -0.011539823 0.074469164
-0.023776956 -0.23357244 0.0466312 -0.060826432 0.112916104 0.28828847 0.014870818 0.11234669
-0.06870879 -0.08665963 -0.5461633 -0.04470483 0.054136746 -0.009767637 0.11968102 0.22880957
0.08051608 -0.010642862 -0.012531178 -0.034274966 -0.06525431 0.25218225 -0.027678043 0.017880488
0.0076532955 -0.09729722 0.017416054 0.075258076 0.066661224 -0.067521 -0.06654418 0.0194356
0.02863479 -0.2679467 0.024251737 0.06041309 0.072838806 -0.03466527 0.0018861541 -0.009367477
-0.4427172 -0.050945356 -0.035441246 -0.33074236 0.097573034 0.06312027 0.03457991 0.034363158
